model.ckpt (torch, 60311 bytes, 8 tensors)

fc1.weight f4 [128, 40]
0	0x3c6cf25f	0.014462083
1	0xb850acad	-4.975188e-05
2	0x39c20de3	0.0003701291
3	0xb850a039	-4.9740283e-05
4	0xb9265a35	-0.00015864598
5	0xb84fb336	-4.951955e-05
6	0x3a1adb5a	0.000590732
7	0xb84e9f55	-4.9262617e-05
8	0xb99caea0	-0.00029884744
9	0xb84f64a8	-4.944639e-05
10	0x3a13cb86	0.00056379323
11	0xb84d8588	-4.900017e-05
12	0xb937abc4	-0.00017516228
13	0xb84e9f62	-4.9262664e-05
14	0xb90c860f	-0.00013401381
15	0xb84c48cc	-4.8705188e-05
16	0x39e8a762	0.00044375198
17	0xb84e22b2	-4.914654e-05
18	0xb91ced67	-0.00014965759
19	0xb849e0cd	-4.8131496e-05
20	0x3a336bdb	0.000684438
21	0xb84d266c	-4.8911592e-05
22	0xb94c4398	-0.00019480137
23	0xb846eecf	-4.7429286e-05
24	0x3a260049	0.000633244
25	0xb84b3a7f	-4.845345e-05
26	0xb8730e7b	-5.79492e-05
27	0xb8443944	-4.6783374e-05
28	0x3a20aece	0.00061295636
29	0xb849ba01	-4.8095364e-05
30	0x3982e5db	0.00024966788
31	0xb840ed4d	-4.599737e-05
32	0xb792f806	-1.7520051e-05
33	0xb847057b	-4.74504e-05
34	0x39ddcefc	0.0004230662
35	0xb83d108f	-4.5076533e-05
36	0xb94f20cd	-0.00019753278
37	0xb8448631	-4.6855017e-05
38	0x3a1d46b1	0.00059996085
39	0xb839ebc6	-4.432702e-05
40	0x00000dcc	4.95e-42
41	0x80000db9	-4.923e-42
42	0x00000dcd	4.951e-42
43	0x00000dbc	4.927e-42
44	0x00000db5	4.917e-42
45	0x00000db0	4.91e-42
46	0x80000dbe	-4.93e-42
47	0x00000dc9	4.945e-42
48	0x80000db7	-4.92e-42
49	0x00000dac	4.905e-42
50	0x00000dad	4.906e-42
51	0x80000dc6	-4.941e-42
52	0x80000db2	-4.913e-42
53	0x00000db8	4.921e-42
54	0x80000dc0	-4.933e-42
55	0x00000db4	4.916e-42
56	0x80000daf	-4.909e-42
57	0x00000dbe	4.93e-42
58	0x80000dbd	-4.928e-42
59	0x80000dcb	-4.948e-42
60	0x00000db9	4.923e-42
61	0x00000dcb	4.948e-42
62	0x00000db1	4.912e-42
63	0x80000dad	-4.906e-42
64	0x00000dcb	4.948e-42
65	0x00000dac	4.905e-42
66	0x80000dbe	-4.93e-42
67	0x80000dc3	-4.937e-42
68	0x80000dcd	-4.951e-42
69	0x80000db4	-4.916e-42
70	0x80000db1	-4.912e-42
71	0x80000dc1	-4.934e-42
72	0x00000dac	4.905e-42
73	0x00000db9	4.923e-42
74	0x80000dbb	-4.926e-42
75	0x80000db6	-4.919e-42
76	0x80000dae	-4.907e-42
77	0x00000dbe	4.93e-42
78	0x80000dc3	-4.937e-42
79	0x00000dbe	4.93e-42
80	0x3d40759f	0.046987172
81	0xb80f1546	-3.411367e-05
82	0xb8c1c9fa	-9.240578e-05
83	0xb80f307c	-3.413901e-05
84	0x391ad73a	0.00014766763
85	0xb80f45c2	-3.4158824e-05
86	0xb923bd1f	-0.00015615344
87	0xb80f75e1	-3.420364e-05
88	0x39647c12	0.00021789994
89	0xb80f90cf	-3.422872e-05
90	0xb9332b0e	-0.0001708681
91	0xb80fadaf	-3.4255612e-05
92	0x388edcb3	6.812196e-05
93	0xb80fea54	-3.4312092e-05
94	0x39294b4a	0.00016145143
95	0xb8100731	-3.4338973e-05
96	0xb82c7760	-4.1119172e-05
97	0xb810756a	-3.4441626e-05
98	0x39419804	0.00018462545
99	0xb81089bf	-3.446056e-05
100	0xb912e7ac	-0.0001400995
101	0xb8115408	-3.4648954e-05
102	0x39504004	0.00019860273
103	0xb8117cbb	-3.468686e-05
104	0xb91fa3bf	-0.00015224422
105	0xb81281d7	-3.4930035e-05
106	0xb58d889c	-1.0545077e-06
107	0xb8129fa0	-3.4957775e-05
108	0xb87ef989	-6.0790717e-05
109	0xb813dc21	-3.5252542e-05
110	0xb8df2f1f	-0.000106422456
111	0xb813999c	-3.519059e-05
112	0xb74c54e5	-1.2179114e-05
113	0xb815acba	-3.5685232e-05
114	0xb95260bc	-0.00020063197
115	0xb814c949	-3.547341e-05
116	0x38ac4349	8.214132e-05
117	0xb817a67d	-3.615626e-05
118	0xb91f0a9c	-0.00015167374
119	0xb816127c	-3.578e-05
120	0x3e12986c	0.14315957
121	0xb7bee650	-2.2757013e-05
122	0xb714e7d6	-8.875466e-06
123	0xb7bfa07c	-2.2843706e-05
124	0x34cdd14a	3.8336503e-07
125	0xb7c028b9	-2.2907147e-05
126	0xb530b2d6	-6.582535e-07
127	0xb7c0a0cf	-2.2963066e-05
128	0x3629f7f9	2.5327302e-06
129	0xb7c0c51a	-2.2979966e-05
130	0xb837b1e2	-4.3796266e-05
131	0xb7c09342	-2.2956756e-05
132	0x37bf11df	2.2777296e-05
133	0xb7c163e4	-2.3053908e-05
134	0x375f408e	1.3306866e-05
135	0xb7c0fef6	-2.3006909e-05
136	0xb8892636	-6.5397864e-05
137	0xb7c1e793	-2.3115228e-05
138	0x370d156a	8.409241e-06
139	0xb7c1e45a	-2.3113727e-05
140	0xb8fc6149	-0.00012034417
141	0xb7c328ac	-2.326475e-05
142	0xb890ed75	-6.910685e-05
143	0xb7c2cb30	-2.3221219e-05
144	0xb83e6e19	-4.5402066e-05
145	0xb7c409ac	-2.3369525e-05
146	0x37e67712	2.7473583e-05
147	0xb7c3fedf	-2.3364495e-05
148	0xb8f06ab0	-0.00011463964
149	0xb7c43a9e	-2.3392317e-05
150	0x36c4c00c	5.8636124e-06
151	0xb7c52abe	-2.3504133e-05
152	0x385accef	5.216611e-05
153	0xb7c4dc4c	-2.3467604e-05
154	0x371aa6d4	9.217958e-06
155	0xb7c73295	-2.3746203e-05
156	0xb7ca197f	-2.4092149e-05
157	0xb7c442c5	-2.3396113e-05
158	0xb88695fc	-6.417555e-05
159	0xb7c7a339	-2.3798655e-05
160	0x00000dc7	4.942e-42
161	0x80000dad	-4.906e-42
162	0x80000e82	-5.204e-42
163	0x80000e6c	-5.174e-42
164	0x80000dba	-4.924e-42
165	0x80001138	-6.177e-42
166	0x00000db4	4.916e-42
167	0x00000dbd	4.928e-42
168	0x80000dcc	-4.95e-42
169	0x00000f09	5.394e-42
170	0x00000ff3	5.722e-42
171	0x00000f53	5.497e-42
172	0x80000ebf	-5.29e-42
173	0x00000dff	5.021e-42
174	0x00000fd7	5.682e-42
175	0x00000dca	4.947e-42
176	0x80000dcb	-4.948e-42
177	0x80000daf	-4.909e-42
178	0x00000f96	5.591e-42
179	0x80000df6	-5.008e-42
180	0x80000dfb	-5.015e-42
181	0x00000ddc	4.972e-42
182	0x80000e9a	-5.238e-42
183	0x00000dba	4.924e-42
184	0x80000def	-4.998e-42
185	0x00000f48	5.482e-42
186	0x00000dba	4.924e-42
187	0x8000101e	-5.782e-42
188	0x800010bb	-6.002e-42
189	0x80001175	-6.262e-42
190	0x00000db9	4.923e-42
191	0x80000df4	-5.005e-42
192	0x80000e58	-5.146e-42
193	0x80000e3a	-5.104e-42
194	0x80001001	-5.741e-42
195	0x00001077	5.906e-42
196	0x00000fec	5.712e-42
197	0x00000e6a	5.171e-42
198	0x00000e51	5.136e-42
199	0x80000dad	-4.906e-42
200	0x3dbe31e3	0.09286859
201	0x385681fb	5.114263e-05
202	0x392a056b	0.00016214482
203	0x385758db	5.1342748e-05
204	0xb93d41bf	-0.00018048937
205	0x38577996	5.137323e-05
206	0x3984577d	0.00025242186
207	0x38587919	5.1611194e-05
208	0xb9843984	-0.00025219854
209	0x3857b8d7	5.143214e-05
210	0x39890ef7	0.00026141826
211	0x3858df20	5.1706214e-05
212	0xb923f27f	-0.00015635228
213	0x38582c95	5.1539933e-05
214	0xb985bf73	-0.00025510378
215	0x38598c0d	5.1867264e-05
216	0x3925c315	0.000158083
217	0x3858cbb3	5.1688123e-05
218	0xb95f5709	-0.0002129936
219	0x385b0721	5.2220308e-05
220	0x39b7df6b	0.0003507094
221	0x3859c30b	5.191848e-05
222	0xb927d5c8	-0.00016006001
223	0x385cc0bb	5.263158e-05
224	0x399754c1	0.0002886411
225	0x385b66fc	5.230958e-05
226	0xb9098b1d	-0.00013117162
227	0x385e077a	5.2935888e-05
228	0x39b6e038	0.000348808
229	0x385c776a	5.25633e-05
230	0x38b53055	8.639755e-05
231	0x385fc2ee	5.3348886e-05
232	0xb892623b	-6.980119e-05
233	0x385e49a8	5.2997522e-05
234	0x39527a95	0.00020072826
235	0x38623408	5.3931057e-05
236	0xb8d20d21	-0.00010016026
237	0x385fdeb3	5.3374748e-05
238	0x39bb512b	0.00035727894
239	0x38635c78	5.4207136e-05
240	0x3de707d5	0.11280791
241	0x35672801	8.611242e-07
242	0x391f1864	0.00015172508
243	0x358385f5	9.799247e-07
244	0xb92d66ab	-0.00016536812
245	0x358db852	1.0558963e-06
246	0x39832f53	0.00025021526
247	0x35b79ee9	1.3680811e-06
248	0xb947c7bb	-0.00019052524
249	0x35953ad3	1.1118485e-06
250	0x396f71b2	0.00022835171
251	0x35ccf48f	1.527036e-06
252	0xb8bfd5f2	-9.14744e-05
253	0x35b6fbeb	1.3633374e-06
254	0xb930e81c	-0.00016871135
255	0x35f5664e	1.8283697e-06

fc1.bias f4 [128]
0	0xb9aa2aff	-0.0003245696
1	0x00000dbe	4.93e-42
2	0x37d5fca8	2.550923e-05
3	0x389dbc8a	7.5214615e-05
4	0x80000ea0	-5.246e-42
5	0xb9154cea	-0.000142384
6	0xb9348b6a	-0.00017218073
7	0xb95a6b09	-0.00020829974
8	0xba1f9bf9	-0.00060886104
9	0xb7dd4c85	-2.6380885e-05
10	0x00000e29	5.08e-42
11	0x00000dd5	4.962e-42
12	0x391c27f2	0.000148922
13	0xb92f5a6f	-0.0001672299
14	0xb8aef806	-8.3431645e-05
15	0x37b6ec2e	2.180607e-05
16	0x38edd9f1	0.000113416354
17	0x3818680f	3.6336536e-05
18	0xb956f83e	-0.00020501108
19	0xba75840f	-0.00093656866
20	0x00000db2	4.913e-42
21	0x80000db4	-4.916e-42
22	0x00000db1	4.912e-42
23	0xb8827ae8	-6.221776e-05
24	0x39909049	0.0002757332
25	0x38bd3060	9.021233e-05
26	0x80000dcb	-4.948e-42
27	0xb7a2295b	-1.9331163e-05
28	0xb9b4115d	-0.00034345212
29	0xb98b35fa	-0.00026552362
30	0x80000dcd	-4.951e-42
31	0x80000dd3	-4.959e-42
32	0x00000db5	4.917e-42
33	0x390f61f3	0.00013674032
34	0x3829f45d	4.052032e-05
35	0xb8af8d55	-8.3709754e-05
36	0x3882942f	6.2264844e-05
37	0x80000db0	-4.91e-42
38	0x80000dc8	-4.944e-42
39	0xb93128d9	-0.00016895252
40	0x80000dcc	-4.95e-42
41	0x398aac42	0.00026449753
42	0x00000dc7	4.942e-42
43	0x00000dc5	4.94e-42
44	0x39ae2b76	0.00033220247
45	0x00000dc9	4.945e-42
46	0x37a6d686	1.9888637e-05
47	0x392da1da	0.0001655886
48	0x3757e9b4	1.2869412e-05
49	0x382eb4d0	4.1653228e-05
50	0xb993d07d	-0.0002819336
51	0x80000f58	-5.504e-42
52	0x80000dcc	-4.95e-42
53	0xb93c4e20	-0.00017958181
54	0x00000db9	4.923e-42
55	0x00000dad	4.906e-42
56	0x00000db6	4.919e-42
57	0x00000dc6	4.941e-42
58	0x00000db2	4.913e-42
59	0x00000db3	4.914e-42
60	0x80000dcb	-4.948e-42
61	0xba964d1e	-0.0011467075
62	0xba87f119	-0.0010371535
63	0xb4d80001	-4.0233138e-07
64	0x80000db6	-4.919e-42
65	0x80000e0c	-5.039e-42
66	0x00000dc7	4.942e-42
67	0x3871e57c	5.76726e-05
68	0x00000dc2	4.935e-42
69	0x00000dc3	4.937e-42
70	0xb92295c5	-0.00015505317
71	0xb99d7256	-0.0003003056
72	0xb8fae735	-0.000119639946
73	0x00000dc5	4.94e-42
74	0x38cfebb9	9.914436e-05
75	0x00000db1	4.912e-42
76	0x384e6274	4.920592e-05
77	0x00000dbc	4.927e-42
78	0x80000e68	-5.168e-42
79	0x80000db4	-4.916e-42
80	0x80000dcc	-4.95e-42
81	0x00000dc8	4.944e-42
82	0x3a0149d9	0.00049319636
83	0x00000dad	4.906e-42
84	0xb9749560	-0.000233253
85	0x80000dbe	-4.93e-42
86	0x395d1b3d	0.0002108635
87	0xb8566ee4	-5.112485e-05
88	0x80000f18	-5.415e-42
89	0xb9460e3f	-0.00018888059
90	0xb9b01601	-0.0003358573
91	0x38a7ce04	8.001554e-05
92	0xb7d19459	-2.4983821e-05
93	0x80000dc6	-4.941e-42
94	0x00000dcb	4.948e-42
95	0xb8f42622	-0.000116419294
96	0xb917fab1	-0.00014493872
97	0x3932cb76	0.00017051198
98	0x394515a9	0.00018795453
99	0xb703b370	-7.849987e-06
100	0x394537c8	0.00018808164
101	0xb93f3296	-0.00018234024
102	0xb897d6c0	-7.2402414e-05
103	0x37fd720d	3.021306e-05
104	0x80000dac	-4.905e-42
105	0x00000dcd	4.951e-42
106	0x80000eb0	-5.269e-42
107	0xb81d73cc	-3.753956e-05
108	0x39303d21	0.0001680744
109	0x00000dc5	4.94e-42
110	0x00000dc7	4.942e-42
111	0x80000dbb	-4.926e-42
112	0x38eff0bc	0.00011441248
113	0x00000db8	4.921e-42
114	0xb97447a7	-0.00023296346
115	0x3907dbd9	0.00012956503
116	0x80000dbf	-4.931e-42
117	0xb80555ea	-3.1789685e-05
118	0x80000dc1	-4.934e-42
119	0xb9a1ff7f	-0.00030898672
120	0x80000db0	-4.91e-42
121	0x3912e6ee	0.00014009673
122	0xb7f653b0	-2.9364455e-05
123	0x00000db1	4.912e-42
124	0xb874bbe3	-5.8349116e-05
125	0xb8b938ac	-8.8320434e-05
126	0x80000daf	-4.909e-42
127	0xb8bed4f6	-9.099573e-05

fc2.weight f4 [32, 128]
0	0x3d576dee	0.05259507
1	0x80000db8	-4.921e-42
2	0x3b1dfe51	0.0024107883
3	0x3d3e82af	0.04651135
4	0x80000db0	-4.91e-42
5	0x3d8dda53	0.06926408
6	0xbd4d001f	-0.050048944
7	0x3cecbb1b	0.028897813
8	0x3c300907	0.01074434
9	0xbd047daa	-0.032346405
10	0x00000dc5	4.94e-42
11	0x80000db1	-4.912e-42
12	0x3b888e53	0.004167357
13	0xbce8c6a3	-0.02841503
14	0xbd6e59ba	-0.05819104
15	0xbd4afe08	-0.04955867
16	0xbc931fb4	-0.017959453
17	0xbc8bc04d	-0.01705947
18	0x3d4e54a9	0.050373707
19	0x3d910008	0.07080084
20	0x80000dc1	-4.934e-42
21	0x00000dbf	4.931e-42
22	0x00000dc0	4.933e-42
23	0x3d597580	0.053090572
24	0xbc193434	-0.009350825
25	0xbd311404	-0.04323198
26	0x80000dc9	-4.945e-42
27	0xbd2bcd68	-0.041943938
28	0x3d642034	0.055694774
29	0x3c8c99c9	0.017163174
30	0x00000db9	4.923e-42
31	0x80000dda	-4.969e-42
32	0x80000db7	-4.92e-42
33	0x3b440eae	0.0029915976
34	0xbcfe0b75	-0.031011323
35	0xbc5609ee	-0.013063891
36	0x3cd64e89	0.026160495
37	0x80000db6	-4.919e-42
38	0x80000dc3	-4.937e-42
39	0x3c8a3409	0.016870515
40	0x80000dbb	-4.926e-42
41	0x3d87f3e7	0.066383176
42	0x00000dc9	4.945e-42
43	0x80000db7	-4.92e-42
44	0xbca5d41f	-0.020242749
45	0x00000dbd	4.928e-42
46	0x3d26eb9c	0.04075204
47	0xbd223d38	-0.039609164
48	0xbb92aae2	-0.004475937
49	0x3c5cae35	0.013469269
50	0x3c2e3d95	0.0106347995
51	0x80000dc6	-4.941e-42
52	0x80000db2	-4.913e-42
53	0x3d59e3d9	0.053195808
54	0x00000dc4	4.938e-42
55	0x00000dc5	4.94e-42
56	0x00000db5	4.917e-42
57	0x00000dc7	4.942e-42
58	0x80000daf	-4.909e-42
59	0x80000dae	-4.907e-42
60	0x00000dc5	4.94e-42
61	0x3dc7aa6c	0.09749302
62	0x3dc8abea	0.09798415
63	0xb8eaa785	-0.000111891924
64	0x80000dbb	-4.926e-42
65	0x80000dbf	-4.931e-42
66	0x00000dc0	4.933e-42
67	0x3b9424ea	0.004521002
68	0x80000db6	-4.919e-42
69	0x00000dc5	4.94e-42
70	0xbd600408	-0.054691344
71	0x3d72b789	0.059257064
72	0x3d040046	0.032226823
73	0x80000dc5	-4.94e-42
74	0xbd027820	-0.03185284
75	0x80000dbc	-4.927e-42
76	0xbd894054	-0.06701723
77	0x00000db0	4.91e-42
78	0x00000de0	4.977e-42
79	0x00000dc9	4.945e-42
80	0x80000dc1	-4.934e-42
81	0x00000dc0	4.933e-42
82	0x39aac156	0.00032568973
83	0x00000dae	4.907e-42
84	0x3c87dd8e	0.016585138
85	0x80000e2a	-5.081e-42
86	0x3d72aae6	0.059245013
87	0xbcab7e22	-0.020934168
88	0x80000dc9	-4.945e-42
89	0x3d41cb7f	0.04731321
90	0x3d8a3a08	0.0674935
91	0x3c0ebe7c	0.008712407
92	0x3d9313fb	0.07181545
93	0x80000dac	-4.905e-42
94	0x00000dbf	4.931e-42
95	0xbd84fcfa	-0.06493564
96	0xbcb7c1ad	-0.022431219
97	0xbd11a2c0	-0.0355556
98	0xbd8103f7	-0.06299584
99	0xbc12272d	-0.008920473
100	0xbd8f5242	-0.06998111
101	0x3d5f49e4	0.054513827
102	0xbd58de6f	-0.052946504
103	0xbc196ac0	-0.00936383
104	0x00000dba	4.924e-42
105	0x00000db0	4.91e-42
106	0x80000dc5	-4.94e-42
107	0xbd95ff9c	-0.07324144
108	0xbd209bae	-0.039210968
109	0x00000dcc	4.95e-42
110	0x00000dba	4.924e-42
111	0x80000dbc	-4.927e-42
112	0x3c317604	0.01083136
113	0x00000dcc	4.95e-42
114	0x3d4a5136	0.049393855
115	0xbd543f98	-0.05181846
116	0x00000dba	4.924e-42
117	0xbd406880	-0.04697466
118	0x00000dc7	4.942e-42
119	0x3d3fad16	0.046795927
120	0x80000dba	-4.924e-42
121	0x3d4e0a90	0.050303042
122	0xbc0eed2e	-0.00872354
123	0x80000dcd	-4.951e-42
124	0x3d34a70c	0.04410462
125	0xbd48a403	-0.04898454
126	0x80000db1	-4.912e-42
127	0x3d7b9839	0.061424468
128	0x3d08e63e	0.0334227
129	0x00000db7	4.92e-42
130	0x3cb93088	0.02260615
131	0x3d19aacf	0.03751641
132	0x00000dc7	4.942e-42
133	0xbce3c869	-0.027805524
134	0xbd83b022	-0.06430079
135	0x3cdc48f2	0.026890252
136	0x3d13ebc8	0.03611353
137	0x3d69f1e5	0.057115454
138	0x80000db1	-4.912e-42
139	0x00000db3	4.914e-42
140	0xbdab35de	-0.08359884
141	0x3d6765ad	0.05649345
142	0x3b80d8ea	0.003932108
143	0x3d3dd52b	0.04634587
144	0xbd4cbb58	-0.049983352
145	0x3cb89f92	0.022537027
146	0x3c8ae304	0.016953953
147	0x3c702af9	0.014658683
148	0x00000dba	4.924e-42
149	0x00000daf	4.909e-42
150	0x00000dac	4.905e-42
151	0xbd46a6ff	-0.048499104
152	0x3d1cb709	0.038260493
153	0xbd58549a	-0.052815057
154	0x80000db2	-4.913e-42
155	0x3d850485	0.06495003
156	0x3d7c8221	0.061647538
157	0xbcd86983	-0.0264175
158	0x00000dc9	4.945e-42
159	0x00000dc9	4.945e-42
160	0x80000dcb	-4.948e-42
161	0x3d63cd00	0.055615425
162	0xbd93696e	-0.071978435
163	0x3d1ed5ba	0.038778044
164	0x3d3fe9e1	0.046853904
165	0x00000dad	4.906e-42
166	0x00000db8	4.921e-42
167	0x3d319ca0	0.04336226
168	0x00000dca	4.947e-42
169	0x3c833b36	0.016019445
170	0x00000dae	4.907e-42
171	0x80000dc2	-4.935e-42
172	0x3d5b04be	0.05347132
173	0x80000dc1	-4.934e-42
174	0x3d82b0ac	0.06381354
175	0xbc959ba5	-0.018262694
176	0x3c81d0c9	0.015846627
177	0x3a7a5547	0.00095494505
178	0x3d502ab5	0.05082198
179	0x00000dbc	4.927e-42
180	0x80000dbf	-4.931e-42
181	0x3d5fcdbd	0.054639567
182	0x80000dca	-4.947e-42
183	0x00000dcd	4.951e-42
184	0x00000db3	4.914e-42
185	0x00000dc8	4.944e-42
186	0x80000db0	-4.91e-42
187	0x80000dc5	-4.94e-42
188	0x80000dca	-4.947e-42
189	0x3b87c169	0.0041429293
190	0x3b971feb	0.004611959
191	0x38f8b0d3	0.000118584976
192	0x00000dae	4.907e-42
193	0x00000db4	4.916e-42
194	0x80000db4	-4.916e-42
195	0xbd83b9bb	-0.0643191
196	0x00000db7	4.92e-42
197	0x80000dbc	-4.927e-42
198	0x3d64bda9	0.055844937
199	0xbd3c340b	-0.04594807
200	0xbcf3f50b	-0.029779932
201	0x00000db4	4.916e-42
202	0xbd4f1070	-0.050552785
203	0x00000db2	4.913e-42
204	0xbd891276	-0.06692974
205	0x80000dc7	-4.942e-42
206	0x00000dc7	4.942e-42
207	0x00000dcc	4.95e-42
208	0x00000dc0	4.933e-42
209	0x80000dc4	-4.938e-42
210	0xbace4b7c	-0.0015739049
211	0x00000dac	4.905e-42
212	0x3d4f38b9	0.050591204
213	0x00000dcc	4.95e-42
214	0x3a85b62c	0.0010201386
215	0xbd40bbf0	-0.04705423
216	0x00000db6	4.919e-42
217	0x3b438319	0.002983278
218	0x3b812271	0.0039408733
219	0x3d2ea4e8	0.042637736
220	0xbd331f1c	-0.04373084
221	0x00000db8	4.921e-42
222	0x00000dcb	4.948e-42
223	0x3c42e2ac	0.011894863
224	0x3d71a203	0.058992397
225	0xbd936e02	-0.07198717
226	0xbd4c5eec	-0.049895212
227	0x3d335b85	0.04378845
228	0xbd11c1c2	-0.035585172
229	0x3d81b7de	0.06333898
230	0xbd7e4aae	-0.06208294
231	0x3d32709a	0.043564416
232	0x80000dc1	-4.934e-42
233	0x00000dc1	4.934e-42
234	0x80000dc4	-4.938e-42
235	0xbd45dd74	-0.048306897
236	0xbcabe740	-0.020984292
237	0x80000dc2	-4.935e-42
238	0x00000dc6	4.941e-42
239	0x00000dc2	4.935e-42
240	0xbd5cd380	-0.05391264
241	0x80000e66	-5.165e-42
242	0xbbe4833a	-0.0069736512
243	0xbc7a3646	-0.015271729
244	0x0000110f	6.12e-42
245	0xbcc17d6d	-0.023619378
246	0x00000dc9	4.945e-42
247	0xbc3b86a9	-0.01144568
248	0x80000db5	-4.917e-42
249	0x3ccf1d5d	0.025282556
250	0xbd437ecb	-0.04772834
251	0x00000dad	4.906e-42
252	0x3d268e0c	0.04066281
253	0x3be73194	0.0070554707
254	0x00000db8	4.921e-42
255	0x3d1aac34	0.037761882

fc2.bias f4 [32]
0	0xba55b256	-0.00081518793
1	0xba23532b	-0.00062303495
2	0xb8b29443	-8.515317e-05
3	0x3a3a1c06	0.0007099513
4	0x80000e4d	-5.13e-42
5	0xba0813c9	-0.00051909365
6	0xb9a6ccc2	-0.00031814544
7	0x00000db3	4.914e-42
8	0xbab4418c	-0.0013752445
9	0xb9a2125a	-0.0003091272
10	0x00000db7	4.92e-42
11	0x3a81676c	0.0009872741
12	0x3ad3f56a	0.0016171162
13	0xbb1c8492	-0.002388273
14	0xbab773dd	-0.0013996322
15	0xba5334d7	-0.0008056885
16	0xb9a44aca	-0.0003133624
17	0x00000dcc	4.95e-42
18	0x000010fc	6.093e-42
19	0xba7f130e	-0.00097303174
20	0xbaa75b5f	-0.001276832
21	0xba20d949	-0.00061358936
22	0xba6a33ab	-0.0008934091
23	0x80000eef	-5.357e-42
24	0x39501ea7	0.00019847845
25	0x39dee477	0.0004251336
26	0xb8a904fd	-8.059477e-05
27	0xba6cb2d0	-0.00090293307
28	0xb9c3d6db	-0.00037353378
29	0x392d967a	0.00016554623
30	0x00000dc1	4.934e-42
31	0x00000e6a	5.171e-42

fc3.weight f4 [16, 32]
0	0xbbc92177	-0.0061380225
1	0xbd1e1977	-0.038598504
2	0xb8bd17f8	-9.016687e-05
3	0xbcc45f34	-0.023971178
4	0x80000dba	-4.924e-42
5	0x3d23d684	0.0399995
6	0xbd9b15f5	-0.07572547
7	0x00000dc4	4.938e-42
8	0xbd4e5db1	-0.05038232
9	0x3d30fb10	0.04320818
10	0x00000dbd	4.928e-42
11	0x3ded530d	0.11588106
12	0x3ddd767c	0.10813615
13	0x3d27fdaf	0.041013416
14	0x3be90685	0.007111373
15	0xbccffad3	-0.025388157
16	0xbe30f143	-0.17279534
17	0x00000dbb	4.926e-42
18	0x00000dc7	4.942e-42
19	0xbdcd44a2	-0.10022856
20	0x3e0e8ea5	0.13921602
21	0xbe196895	-0.14981301
22	0x3d10adbe	0.035321943
23	0x80000db8	-4.921e-42
24	0x3d39eef0	0.045393884
25	0x3d80bd4c	0.062861055
26	0xbe04e70c	-0.12978762
27	0x3d364191	0.044496123
28	0xbd879335	-0.066198744
29	0xbd0e9c78	-0.03481719
30	0x80000e42	-5.115e-42
31	0x80000dbc	-4.927e-42
32	0x3c6644ca	0.0140544865
33	0x3cf4a7e3	0.02986521
34	0xbd8f7dc1	-0.070064075
35	0x3d537210	0.05162245
36	0x80000dc1	-4.934e-42
37	0xbd7d11e8	-0.061784655
38	0xbd1e6feb	-0.038680952
39	0x80000dc8	-4.944e-42
40	0x3c504d89	0.012713798
41	0xbd4d54ec	-0.050129816
42	0x80000dc5	-4.94e-42
43	0xbd5dd58e	-0.05415874
44	0x3dc0d2f6	0.094152376
45	0x360b9c4d	2.0803593e-06
46	0xba08c763	-0.0005217699
47	0x3d497e09	0.049192462
48	0x3ddb45a1	0.1070664
49	0x80000db6	-4.919e-42
50	0x80000dc6	-4.941e-42
51	0x3d242e0b	0.040082972
52	0xbc5c3509	-0.013440379
53	0xba8dd896	-0.0010821994
54	0xbd533bff	-0.05157089
55	0x80000dac	-4.905e-42
56	0xbd92440a	-0.07141884
57	0xbdabe142	-0.08392574
58	0x3d526cf7	0.05137345
59	0x39c555e7	0.0003763877
60	0xbb268171	-0.0025406743
61	0x3d052084	0.032501712
62	0x80000dc8	-4.944e-42
63	0x00000dc3	4.937e-42
64	0x3d8d16d6	0.06889121
65	0x3db0acef	0.086267345
66	0x3d5905fc	0.052984223
67	0x3d5638cb	0.052300256
68	0x00000dba	4.924e-42
69	0xbc15a8e2	-0.009134503
70	0xbdd71e66	-0.10503845
71	0x80000dc2	-4.935e-42
72	0x3dfc230b	0.123113714
73	0x3d04e9e4	0.032449618
74	0x00000db9	4.923e-42
75	0x3e14fcd5	0.14549573
76	0xbd5989e9	-0.053110037
77	0xbd915ae3	-0.070974134
78	0x3bcaa04f	0.006183661
79	0x3dc87dc5	0.09789614
80	0xbd268628	-0.040655285
81	0x00000dba	4.924e-42
82	0x00000db8	4.921e-42
83	0xbe17b392	-0.14814594
84	0xbdae3250	-0.0850569
85	0xbdb50029	-0.08837921
86	0xbd3b6efd	-0.045760144
87	0x00000dac	4.905e-42
88	0xbd4bdf44	-0.04977347
89	0xbd917a5e	-0.07103418
90	0x3e1103d2	0.14161614
91	0xbdb748ab	-0.08949407
92	0xbddfa95a	-0.10920973
93	0xbd24ee77	-0.04026648
94	0x00000dbc	4.927e-42
95	0x80000dc8	-4.944e-42
96	0x3d800f30	0.06252897
97	0x3caada94	0.02085618
98	0x3c8b3ded	0.016997302
99	0x3c42c272	0.01188718
100	0x00000dbb	4.926e-42
101	0x3d0b9db6	0.03408595
102	0xbe02c40b	-0.12770097
103	0x00000dc9	4.945e-42
104	0xbcd19744	-0.025584824
105	0xbe2a95ce	-0.16658708
106	0x00000db5	4.917e-42
107	0xbd989a64	-0.07451323
108	0x3d82d657	0.06388538
109	0xbdcfdfaa	-0.101500824
110	0xbc5d10f8	-0.013492815
111	0xbb813765	-0.003943371
112	0x3e0c6d54	0.1371358
113	0x80000dcb	-4.948e-42
114	0x80000db9	-4.923e-42
115	0x3c26b17c	0.0101741515
116	0x3db6ef88	0.08932406
117	0xbd3f1ef4	-0.04666038
118	0xbb109b6a	-0.002206529
119	0x00000dc9	4.945e-42
120	0x3de581d9	0.11206407
121	0xbc9a0cd3	-0.018804943
122	0xbe0aa2c0	-0.13538647
123	0xbc24289d	-0.010019449
124	0x3d139a79	0.03603599
125	0x3e38bccb	0.18040769
126	0x00000dbd	4.928e-42
127	0x00000dc4	4.938e-42
128	0x00000dc1	4.934e-42
129	0x80000dca	-4.947e-42
130	0x00000db4	4.916e-42
131	0x00000dcd	4.951e-42
132	0x80000db0	-4.91e-42
133	0x80000dac	-4.905e-42
134	0x80000dbd	-4.928e-42
135	0x80000dc4	-4.938e-42
136	0x00000db3	4.914e-42
137	0x80000db0	-4.91e-42
138	0x80000dba	-4.924e-42
139	0x80000db9	-4.923e-42
140	0x00000daf	4.909e-42
141	0x80000db7	-4.92e-42
142	0x80000db1	-4.912e-42
143	0x80000db7	-4.92e-42
144	0x00000dc7	4.942e-42
145	0x00000dca	4.947e-42
146	0x00000f06	5.39e-42
147	0x00000dc1	4.934e-42
148	0x00000dcd	4.951e-42
149	0x00000dba	4.924e-42
150	0x80000db7	-4.92e-42
151	0x80000dc0	-4.933e-42
152	0x80000dbd	-4.928e-42
153	0x80000db3	-4.914e-42
154	0x00000dba	4.924e-42
155	0x00000dc0	4.933e-42
156	0x00000dac	4.905e-42
157	0x80000db7	-4.92e-42
158	0x80000db4	-4.916e-42
159	0x80000daf	-4.909e-42
160	0x00000dc3	4.937e-42
161	0x80000dc8	-4.944e-42
162	0x00000dcb	4.948e-42
163	0x00000dad	4.906e-42
164	0x00000dc4	4.938e-42
165	0x00000db2	4.913e-42
166	0x00000dbd	4.928e-42
167	0x80000db4	-4.916e-42
168	0x80000dba	-4.924e-42
169	0x80000dac	-4.905e-42
170	0x00000dbb	4.926e-42
171	0x00000dbf	4.931e-42
172	0x80000dbc	-4.927e-42
173	0x00000db6	4.919e-42
174	0x00000db6	4.919e-42
175	0x00000dbc	4.927e-42
176	0x00000dc4	4.938e-42
177	0x00000dbd	4.928e-42
178	0x80000db8	-4.921e-42
179	0x00000dd1	4.956e-42
180	0x00000dcc	4.95e-42
181	0x00000dbe	4.93e-42
182	0x00000db5	4.917e-42
183	0x80000dcc	-4.95e-42
184	0x80000dcd	-4.951e-42
185	0x80000dcd	-4.951e-42
186	0x00000dcb	4.948e-42
187	0x80000dad	-4.906e-42
188	0x00000dc0	4.933e-42
189	0x80000dc1	-4.934e-42
190	0x00000dac	4.905e-42
191	0x00000dc7	4.942e-42
192	0x3d1a11f8	0.037614793
193	0x3cfb343d	0.030664558
194	0xbdbf1379	-0.09329886
195	0xbd894a84	-0.06703666
196	0x80000db1	-4.912e-42
197	0xbdc3af71	-0.09554947
198	0x3db8a82b	0.090164505
199	0x00000dbe	4.93e-42
200	0x3c293c86	0.010329371
201	0x3e06fb09	0.131817
202	0x80000dc1	-4.934e-42
203	0xbe220200	-0.15821075
204	0x3d2ef2f5	0.04271217
205	0x3bed8791	0.007248827
206	0xba994437	-0.0011693303
207	0xbd5bce40	-0.053663492
208	0x3d8a19b2	0.06743182
209	0x80000dc5	-4.94e-42
210	0x00000db9	4.923e-42
211	0x3d41bd1c	0.04729949
212	0xbdd10d4e	-0.10207616
213	0x3d0ba8e0	0.0340966
214	0xbccc634e	-0.024949696
215	0x80000dbc	-4.927e-42
216	0x3e0ff00f	0.14056419
217	0xbc1ff2c2	-0.009762468
218	0x3dc06477	0.09394162
219	0xbddd2d5e	-0.10799669
220	0xbae930fb	-0.0017791087
221	0x3c1864dc	0.0093013905
222	0x00000dc0	4.933e-42
223	0x80000db6	-4.919e-42
224	0xbdc731c0	-0.09726286
225	0xbe3b1699	-0.18270339
226	0x3d15467e	0.03644418
227	0xbd6a4528	-0.05719486
228	0x00000dba	4.924e-42
229	0xbe1547d7	-0.14578186
230	0x3d94e061	0.072693594
231	0x80000dc5	-4.94e-42
232	0xbd214c8d	-0.039379645
233	0x3e44c65e	0.19216296
234	0x00000db7	4.92e-42
235	0xbd0276f6	-0.03185173
236	0x3d6a0ce2	0.057141192
237	0x3c85bccc	0.016325377
238	0xbe04acd9	-0.12956561
239	0xbca74757	-0.02041976
240	0xbde10fb6	-0.10989325
241	0x80000db4	-4.916e-42
242	0x80000dc5	-4.94e-42
243	0xbdad5472	-0.08463372
244	0xbdc37a01	-0.09544755
245	0xbde4f0f1	-0.111787684
246	0xbdd0af50	-0.10189688
247	0x00001027	5.794e-42
248	0x3d844fa0	0.064605
249	0xbd01ba1d	-0.031671632
250	0x3dd41729	0.1035598
251	0xbdf4730c	-0.11936006
252	0xbe2995b6	-0.16561016
253	0x3d8164ff	0.063180916
254	0x80000db0	-4.91e-42
255	0x00000daf	4.909e-42

fc3.bias f4 [16]
0	0x3b3d1290	0.0028850175
1	0xb7bbc767	-2.2384991e-05
2	0x3bbf76e5	0.0058430308
3	0x3ba2faef	0.0049737613
4	0x80000db2	-4.913e-42
5	0x80000de0	-4.977e-42
6	0x3aa8acc8	0.0012868876
7	0x3bfd250f	0.007725365
8	0x39d7a9a3	0.00041134385
9	0x80000dde	-4.975e-42
10	0x3c035a94	0.008017201
11	0x3b6f6c55	0.0036533077
12	0x3b413ec7	0.002948688
13	0x3b913e33	0.0044324636
14	0x00000e3a	5.104e-42
15	0x3b50e59f	0.0031875146

fc4.weight f4 [5, 16]
0	0x396b6f25	0.00022452751
1	0xb89d808f	-7.510289e-05
2	0x3a491cb7	0.00076718203
3	0x3a1c78ca	0.00059689267
4	0x00000dc7	4.942e-42
5	0x80000db7	-4.92e-42
6	0x3956eac8	0.00020496093
7	0x3a70d066	0.0009186327
8	0xb91bfb4b	-0.00014875566
9	0x00001145	6.195e-42
10	0x3a54d23b	0.0008118485
11	0x39ec2010	0.00045037316
12	0x39ce375b	0.00039332625
13	0x39d13e3d	0.00039909958
14	0x00000dae	4.907e-42
15	0x3a0cb0bb	0.0005366911
16	0x396c522f	0.0002253733
17	0xb973b2b8	-0.00023240864
18	0x3a4fc953	0.0007926423
19	0x3a135d69	0.0005621524
20	0x00000dc5	4.94e-42
21	0x80000dbe	-4.93e-42
22	0x3961a82c	0.00021520321
23	0x3a726b80	0.0009247586
24	0xb8ce4297	-9.835249e-05
25	0x00000dae	4.907e-42
26	0x3a46c709	0.0007582759
27	0x39daf0f3	0.0004175972
28	0x39c825c9	0.00038175125
29	0x3a02fc99	0.00049967464
30	0x00000db5	4.917e-42
31	0x3a36458f	0.0006953114
32	0x39763e6c	0.00023483642
33	0xb9e2664b	-0.00043182293
34	0x3a52a30b	0.00080351596
35	0x3a06b37b	0.0005138439
36	0x80000dc5	-4.94e-42
37	0x80000dc7	-4.942e-42
38	0x395e77ed	0.00021216246
39	0x3a733277	0.0009277234
40	0xb784616c	-1.5780992e-05
41	0x00000db8	4.921e-42
42	0x3a5c1f5b	0.00083970063
43	0x39fa16d7	0.00047700733
44	0x399163aa	0.0002773081
45	0x39fdd04a	0.00048411108
46	0x00000dcb	4.948e-42
47	0x3a16cf81	0.00057529664
48	0x398a0a1f	0.00026328952
49	0xb9d19ebb	-0.0003998185
50	0x3a45da93	0.0007547524
51	0x3a20f71b	0.0006140337
52	0x00000db9	4.923e-42
53	0x80000db3	-4.914e-42
54	0x39316287	0.0001691674
55	0x3a893dbc	0.0010470669
56	0x3981b199	0.00024737118
57	0x00000dac	4.905e-42
58	0x3a6c558e	0.0009015434
59	0x39fdaf7e	0.00048386672
60	0x39d1e982	0.00040037563
61	0x3a20b525	0.0006130508
62	0x00000dc1	4.934e-42
63	0x3a3b7ae5	0.00071517966
64	0x3987e86b	0.0002592237
65	0xb94270c9	-0.00018543297
66	0x3a5d63f8	0.00084453775
67	0x3a35ebf7	0.00069397636
68	0x00000db7	4.92e-42
69	0x80000db7	-4.92e-42
70	0x38eab4a5	0.00011191637
71	0x3aa60c0f	0.0012668389
72	0x39bf7f17	0.00036525048
73	0x00000dae	4.907e-42
74	0x3a7a7ecf	0.0009555639
75	0x3a1735ee	0.0005768229
76	0x39984c05	0.00029048338
77	0x3a206631	0.00061187433
78	0x00000dbb	4.926e-42
79	0x3a53c735	0.00080786954

fc4.bias f4 [5]
0	0x3fd9bbc5	1.7010428
1	0x3fd9db28	1.7020006
2	0x3fd829ca	1.6887753
3	0x3fd3f72f	1.655981
4	0x3fd38ae5	1.6526762
